…
2025:09:12-09:57:00:864129 |CCL_WARN| did not find MPI-launcher specific variables, switch to ATL/OFI, to force enable ATL/MPI set CCL_ATL_TRANSPORT=mpi
2025:09:12-09:57:00:864129 |CCL_WARN| could not get local_idx/count from environment variables, trying to get them from ATL
2025:09:12-09:57:00:864130 |CCL_WARN| did not find MPI-launcher specific variables, switch to ATL/OFI, to force enable ATL/MPI set CCL_ATL_TRANSPORT=mpi
2025:09:12-09:57:00:864130 |CCL_WARN| could not get local_idx/count from environment variables, trying to get them from ATL
dist init r=1, world=2
dist init r=0, world=2
Asserting FSDP instance is: FullyShardedDataParallel(
  (_fsdp_wrapped_module): TransformerWithSharedParams(
    (embed_tokens): Embedding(23, 16)
    (transformer): Transformer(
      (encoder): TransformerEncoder(
        (layers): ModuleList(
          (0-1): 2 x FullyShardedDataParallel(
            (_fsdp_wrapped_module): TransformerEncoderLayer(
              (self_attn): MultiheadAttention(
                (out_proj): NonDynamicallyQuantizableLinear(in_features=16, out_features=16, bias=True)
              )
              (linear1): Linear(in_features=16, out_features=8, bias=True)
              (dropout): Dropout(p=0.1, inplace=False)
              (linear2): Linear(in_features=8, out_features=16, bias=True)
              (norm1): LayerNorm((16,), eps=1e-05, elementwise_affine=True)
              (norm2): LayerNorm((16,), eps=1e-05, elementwise_affine=True)
              (dropout1): Dropout(p=0.1, inplace=False)
              (dropout2): Dropout(p=0.1, inplace=False)
            )
          )
        )
        (norm): LayerNorm((16,), eps=1e-05, elementwise_affine=True)
      )
      (decoder): TransformerDecoder(
        (layers): ModuleList(
          (0-1): 2 x FullyShardedDataParallel(
            (_fsdp_wrapped_module): TransformerDecoderLayer(
              (self_attn): MultiheadAttention(
                (out_proj): NonDynamicallyQuantizableLinear(in_features=16, out_features=16, bias=True)
              )
              (multihead_attn): MultiheadAttention(
                (out_proj): NonDynamicallyQuantizableLinear(in_features=16, out_features=16, bias=True)
              )
              (linear1): Linear(in_features=16, out_features=8, bias=True)
              (dropout): Dropout(p=0.1, inplace=False)
              (linear2): Linear(in_features=8, out_features=16, bias=True)
              (norm1): LayerNorm((16,), eps=1e-05, elementwise_affine=True)
              (norm2): LayerNorm((16,), eps=1e-05, elementwise_affine=True)
              (norm3): LayerNorm((16,), eps=1e-05, elementwise_affine=True)
              (dropout1): Dropout(p=0.1, inplace=False)
              (dropout2): Dropout(p=0.1, inplace=False)
              (dropout3): Dropout(p=0.1, inplace=False)
            )
          )
        )
        (norm): LayerNorm((16,), eps=1e-05, elementwise_affine=True)
      )
    )
    (output_proj): Linear(in_features=16, out_features=23, bias=True)
    (bn): BatchNorm1d(2, eps=1e-05, momentum=0.1, affine=True, track_running_stats=True)
  )
)
ERROR: expected to be in states [<TrainingState.IDLE: 1>] but current state is TrainingState.SUMMON_FULL_PARAMS
PASSED [15.2211s] [ 33%]
../../../../test/distributed/fsdp/test_fsdp_apply.py::TestApplyXPU::test_nested_module_apply_xpu [2025-09-12 09:57:15.543] [warning] [sycl_collector.h:388] Another subscriber already subscribed to Sycl runtime events, so PTI will not subscribe to them. It will affect correctness of PTI profile: e.g. report zero XPU time for CPU callers of GPU kernels.
…
2025:09:12-12:02:37:942346 |CCL_WARN| could not get local_idx/count from environment variables, trying to get them from ATL
dist init r=0, world=2
FullyShardedDataParallel(
  (_fsdp_wrapped_module): TransformerWithEMA(
    (module): FullyShardedDataParallel(
      (_fsdp_wrapped_module): Transformer(
        (encoder): TransformerEncoder(
          (layers): ModuleList(
            (0-5): 6 x FullyShardedDataParallel(
              (_fsdp_wrapped_module): TransformerEncoderLayer(
                (self_attn): MultiheadAttention(
                  (out_proj): NonDynamicallyQuantizableLinear(in_features=512, out_features=512, bias=True)
                )
                (linear1): Linear(in_features=512, out_features=2048, bias=True)
                (dropout): Dropout(p=0.1, inplace=False)
                (linear2): Linear(in_features=2048, out_features=512, bias=True)
                (norm1): LayerNorm((512,), eps=1e-05, elementwise_affine=True)
                (norm2): LayerNorm((512,), eps=1e-05, elementwise_affine=True)
                (dropout1): Dropout(p=0.1, inplace=False)
                (dropout2): Dropout(p=0.1, inplace=False)
              )
            )
          )
          (norm): LayerNorm((512,), eps=1e-05, elementwise_affine=True)
        )
        (decoder): TransformerDecoder(
          (layers): ModuleList(
            (0-5): 6 x FullyShardedDataParallel(
              (_fsdp_wrapped_module): TransformerDecoderLayer(
                (self_attn): MultiheadAttention(
                  (out_proj): NonDynamicallyQuantizableLinear(in_features=512, out_features=512, bias=True)
                )
                (multihead_attn): MultiheadAttention(
                  (out_proj): NonDynamicallyQuantizableLinear(in_features=512, out_features=512, bias=True)
                )
                (linear1): Linear(in_features=512, out_features=2048, bias=True)
                (dropout): Dropout(p=0.1, inplace=False)
                (linear2): Linear(in_features=2048, out_features=512, bias=True)
                (norm1): LayerNorm((512,), eps=1e-05, elementwise_affine=True)
                (norm2): LayerNorm((512,), eps=1e-05, elementwise_affine=True)
                (norm3): LayerNorm((512,), eps=1e-05, elementwise_affine=True)
                (dropout1): Dropout(p=0.1, inplace=False)
                (dropout2): Dropout(p=0.1, inplace=False)
                (dropout3): Dropout(p=0.1, inplace=False)
              )
            )
          )
          (norm): LayerNorm((512,), eps=1e-05, elementwise_affine=True)
        )
      )
    )
    (ema_module): AveragedModel(
      (module): FullyShardedDataParallel(
        (_fsdp_wrapped_module): Transformer(
          (encoder): TransformerEncoder(
            (layers): ModuleList(
              (0-5): 6 x FullyShardedDataParallel(
                (_fsdp_wrapped_module): TransformerEncoderLayer(
                  (self_attn): MultiheadAttention(
                    (out_proj): NonDynamicallyQuantizableLinear(in_features=512, out_features=512, bias=True)
                  )
                  (linear1): Linear(in_features=512, out_features=2048, bias=True)
                  (dropout): Dropout(p=0.1, inplace=False)
                  (linear2): Linear(in_features=2048, out_features=512, bias=True)
                  (norm1): LayerNorm((512,), eps=1e-05, elementwise_affine=True)
                  (norm2): LayerNorm((512,), eps=1e-05, elementwise_affine=True)
                  (dropout1): Dropout(p=0.1, inplace=False)
                  (dropout2): Dropout(p=0.1, inplace=False)
                )
              )
            )
            (norm): LayerNorm((512,), eps=1e-05, elementwise_affine=True)
          )
          (decoder): TransformerDecoder(
            (layers): ModuleList(
              (0-5): 6 x FullyShardedDataParallel(
                (_fsdp_wrapped_module): TransformerDecoderLayer(
                  (self_attn): MultiheadAttention(
                    (out_proj): NonDynamicallyQuantizableLinear(in_features=512, out_features=512, bias=True)
                  )
                  (multihead_attn): MultiheadAttention(
                    (out_proj): NonDynamicallyQuantizableLinear(in_features=512, out_features=512, bias=True)
                  )
                  (linear1): Linear(in_features=512, out_features=2048, bias=True)
                  (dropout): Dropout(p=0.1, inplace=False)
                  (linear2): Linear(in_features=2048, out_features=512, bias=True)
                  (norm1): LayerNorm((512,), eps=1e-05, elementwise_affine=True)
                  (norm2): LayerNorm((512,), eps=1e-05, elementwise_affine=True)
                  (norm3): LayerNorm((512,), eps=1e-05, elementwise_affine=True)
                  (dropout1): Dropout(p=0.1, inplace=False)
                  (dropout2): Dropout(p=0.1, inplace=False)
                  (dropout3): Dropout(p=0.1, inplace=False)
                )
              )
            )
            (norm): LayerNorm((512,), eps=1e-05, elementwise_affine=True)
          )
        )
      )
    )
  )
)
FullyShardedDataParallel(
  (_fsdp_wrapped_module): TransformerWithEMA(
    (module): FullyShardedDataParallel(
      (_fsdp_wrapped_module): Transformer(
        (encoder): TransformerEncoder(
          (layers): ModuleList(
            (0-5): 6 x FullyShardedDataParallel(
              (_fsdp_wrapped_module): TransformerEncoderLayer(
                (self_attn): MultiheadAttention(
                  (out_proj): NonDynamicallyQuantizableLinear(in_features=512, out_features=512, bias=True)
                )
                (linear1): Linear(in_features=512, out_features=2048, bias=True)
                (dropout): Dropout(p=0.1, inplace=False)
                (linear2): Linear(in_features=2048, out_features=512, bias=True)
                (norm1): LayerNorm((512,), eps=1e-05, elementwise_affine=True)
                (norm2): LayerNorm((512,), eps=1e-05, elementwise_affine=True)
                (dropout1): Dropout(p=0.1, inplace=False)
                (dropout2): Dropout(p=0.1, inplace=False)
              )
            )
          )
          (norm): LayerNorm((512,), eps=1e-05, elementwise_affine=True)
        )
        (decoder): TransformerDecoder(
          (layers): ModuleList(
            (0-5): 6 x FullyShardedDataParallel(
              (_fsdp_wrapped_module): TransformerDecoderLayer(
                (self_attn): MultiheadAttention(
                  (out_proj): NonDynamicallyQuantizableLinear(in_features=512, out_features=512, bias=True)
                )
                (multihead_attn): MultiheadAttention(
                  (out_proj): NonDynamicallyQuantizableLinear(in_features=512, out_features=512, bias=True)
                )
                (linear1): Linear(in_features=512, out_features=2048, bias=True)
                (dropout): Dropout(p=0.1, inplace=False)
                (linear2): Linear(in_features=2048, out_features=512, bias=True)
                (norm1): LayerNorm((512,), eps=1e-05, elementwise_affine=True)
                (norm2): LayerNorm((512,), eps=1e-05, elementwise_affine=True)
                (norm3): LayerNorm((512,), eps=1e-05, elementwise_affine=True)
                (dropout1): Dropout(p=0.1, inplace=False)
                (dropout2): Dropout(p=0.1, inplace=False)
                (dropout3): Dropout(p=0.1, inplace=False)
              )
            )
          )
          (norm): LayerNorm((512,), eps=1e-05, elementwise_affine=True)
        )
      )
    )
    (ema_module): AveragedModel(
      (module): FullyShardedDataParallel(
        (_fsdp_wrapped_module): Transformer(
          (encoder): TransformerEncoder(
            (layers): ModuleList(
              (0-5): 6 x FullyShardedDataParallel(
                (_fsdp_wrapped_module): TransformerEncoderLayer(
                  (self_attn): MultiheadAttention(
                    (out_proj): NonDynamicallyQuantizableLinear(in_features=512, out_features=512, bias=True)
                  )
                  (linear1): Linear(in_features=512, out_features=2048, bias=True)
                  (dropout): Dropout(p=0.1, inplace=False)
                  (linear2): Linear(in_features=2048, out_features=512, bias=True)
                  (norm1): LayerNorm((512,), eps=1e-05, elementwise_affine=True)
                  (norm2): LayerNorm((512,), eps=1e-05, elementwise_affine=True)
                  (dropout1): Dropout(p=0.1, inplace=False)
                  (dropout2): Dropout(p=0.1, inplace=False)
                )
              )
            )
            (norm): LayerNorm((512,), eps=1e-05, elementwise_affine=True)
          )
          (decoder): TransformerDecoder(
            (layers): ModuleList(
              (0-5): 6 x FullyShardedDataParallel(
                (_fsdp_wrapped_module): TransformerDecoderLayer(
                  (self_attn): MultiheadAttention(
                    (out_proj): NonDynamicallyQuantizableLinear(in_features=512, out_features=512, bias=True)
                  )
                  (multihead_attn): MultiheadAttention(
                    (out_proj): NonDynamicallyQuantizableLinear(in_features=512, out_features=512, bias=True)
                  )
                  (linear1): Linear(in_features=512, out_features=2048, bias=True)
                  (dropout): Dropout(p=0.1, inplace=False)
                  (linear2): Linear(in_features=2048, out_features=512, bias=True)
                  (norm1): LayerNorm((512,), eps=1e-05, elementwise_affine=True)
                  (norm2): LayerNorm((512,), eps=1e-05, elementwise_affine=True)
                  (norm3): LayerNorm((512,), eps=1e-05, elementwise_affine=True)
                  (dropout1): Dropout(p=0.1, inplace=False)
                  (dropout2): Dropout(p=0.1, inplace=False)
                  (dropout3): Dropout(p=0.1, inplace=False)
                )
              )
            )
            (norm): LayerNorm((512,), eps=1e-05, elementwise_affine=True)
          )
        )
      )
    )
  )
)
dist init r=1, world=2
FullyShardedDataParallel(
  (_fsdp_wrapped_module): TransformerWithEMA(
    (module): FullyShardedDataParallel(
      (_fsdp_wrapped_module): Transformer(
        (encoder): TransformerEncoder(
          (layers): ModuleList(
            (0-5): 6 x FullyShardedDataParallel(
              (_fsdp_wrapped_module): TransformerEncoderLayer(
                (self_attn): MultiheadAttention(
                  (out_proj): NonDynamicallyQuantizableLinear(in_features=512, out_features=512, bias=True)
                )
                (linear1): Linear(in_features=512, out_features=2048, bias=True)
                (dropout): Dropout(p=0.1, inplace=False)
                (linear2): Linear(in_features=2048, out_features=512, bias=True)
                (norm1): LayerNorm((512,), eps=1e-05, elementwise_affine=True)
                (norm2): LayerNorm((512,), eps=1e-05, elementwise_affine=True)
                (dropout1): Dropout(p=0.1, inplace=False)
                (dropout2): Dropout(p=0.1, inplace=False)
              )
            )
          )
          (norm): LayerNorm((512,), eps=1e-05, elementwise_affine=True)
        )
        (decoder): TransformerDecoder(
          (layers): ModuleList(
            (0-5): 6 x FullyShardedDataParallel(
              (_fsdp_wrapped_module): TransformerDecoderLayer(
                (self_attn): MultiheadAttention(
                  (out_proj): NonDynamicallyQuantizableLinear(in_features=512, out_features=512, bias=True)
                )
                (multihead_attn): MultiheadAttention(
                  (out_proj): NonDynamicallyQuantizableLinear(in_features=512, out_features=512, bias=True)
                )
                (linear1): Linear(in_features=512, out_features=2048, bias=True)
                (dropout): Dropout(p=0.1, inplace=False)
                (linear2): Linear(in_features=2048, out_features=512, bias=True)
                (norm1): LayerNorm((512,), eps=1e-05, elementwise_affine=True)
                (norm2): LayerNorm((512,), eps=1e-05, elementwise_affine=True)
                (norm3): LayerNorm((512,), eps=1e-05, elementwise_affine=True)
                (dropout1): Dropout(p=0.1, inplace=False)
                (dropout2): Dropout(p=0.1, inplace=False)
                (dropout3): Dropout(p=0.1, inplace=False)
              )
            )
          )
          (norm): LayerNorm((512,), eps=1e-05, elementwise_affine=True)
        )
      )
    )
    (ema_module): AveragedModel(
      (module): FullyShardedDataParallel(
        (_fsdp_wrapped_module): Transformer(
          (encoder): TransformerEncoder(
            (layers): ModuleList(
              (0-5): 6 x FullyShardedDataParallel(
                (_fsdp_wrapped_module): TransformerEncoderLayer(
                  (self_attn): MultiheadAttention(
                    (out_proj): NonDynamicallyQuantizableLinear(in_features=512, out_features=512, bias=True)
                  )
                  (linear1): Linear(in_features=512, out_features=2048, bias=True)
                  (dropout): Dropout(p=0.1, inplace=False)
                  (linear2): Linear(in_features=2048, out_features=512, bias=True)
                  (norm1): LayerNorm((512,), eps=1e-05, elementwise_affine=True)
                  (norm2): LayerNorm((512,), eps=1e-05, elementwise_affine=True)
                  (dropout1): Dropout(p=0.1, inplace=False)
                  (dropout2): Dropout(p=0.1, inplace=False)
                )
              )
            )
            (norm): LayerNorm((512,), eps=1e-05, elementwise_affine=True)
          )
          (decoder): TransformerDecoder(
            (layers): ModuleList(
              (0-5): 6 x FullyShardedDataParallel(
                (_fsdp_wrapped_module): TransformerDecoderLayer(
                  (self_attn): MultiheadAttention(
                    (out_proj): NonDynamicallyQuantizableLinear(in_features=512, out_features=512, bias=True)
                  )
                  (multihead_attn): MultiheadAttention(
                    (out_proj): NonDynamicallyQuantizableLinear(in_features=512, out_features=512, bias=True)
                  )
                  (linear1): Linear(in_features=512, out_features=2048, bias=True)
                  (dropout): Dropout(p=0.1, inplace=False)
                  (linear2): Linear(in_features=2048, out_features=512, bias=True)
                  (norm1): LayerNorm((512,), eps=1e-05, elementwise_affine=True)
                  (norm2): LayerNorm((512,), eps=1e-05, elementwise_affine=True)
                  (norm3): LayerNorm((512,), eps=1e-05, elementwise_affine=True)
                  (dropout1): Dropout(p=0.1, inplace=False)
                  (dropout2): Dropout(p=0.1, inplace=False)
                  (dropout3): Dropout(p=0.1, inplace=False)
                )
              )
            )
            (norm): LayerNorm((512,), eps=1e-05, elementwise_affine=True)
          )
        )
      )
    )
  )
)
PASSED [17.0283s] [100%]

- generated xml file: /home/jenkins/actions-runner/_work/torch-xpu-ops/torch-xpu-ops/pytorch/third_party/torch-xpu-ops/test/xpu/op_ut_with_skip_test_distributed_fsdp_test_fsdp_mixed_precision.py.xml -
======================= 58 passed in 1075.88s (0:17:55) ========================
============================= test session starts ==============================
…
